model/model.pth (torch, 17216 bytes, 4 tensors)

linear1.weight f4 [256, 11]
0.27332047 -0.09757239 -0.20299275 0.30130464 0.097935416 0.007048521 -0.24652664 -0.089685865
-0.059481207 0.14686078 -0.2997371 -0.118957445 -0.08085806 0.23307817 0.13173054 -0.20607685
-0.17936045 -0.06599029 -0.20698178 0.007559021 -0.00975735 -0.25170863 0.085741445 0.050800513
-0.20773275 0.2783684 0.045848057 0.07967952 -0.20001003 -0.15757246 0.12087473 0.18060094
-0.006671728 0.16432579 -0.20503104 0.11696204 -0.084393024 0.2387601 0.29126915 0.28681108
-0.12532622 0.25338948 -0.12710032 -0.29425323 0.18095088 -0.066074975 -0.12817316 0.2292097
0.042411834 -0.21597517 0.07145836 0.14474285 -0.28274283 -0.10390179 0.2240199 -0.031516075
0.12047298 -0.29786375 -0.28367752 0.20574044 0.061819777 -0.18377347 0.0048448946 0.28691718
0.051311765 0.005899491 -0.16962802 0.028693799 -0.25231978 0.11776382 0.065728135 0.26489896
0.13400766 0.2774884 -0.26603067 -0.12336637 -0.058793757 0.20759478 0.2595611 0.04338343
0.02428711 0.10945259 0.117055826 0.24772276 0.060221016 -0.003980201 -0.013994816 -0.13410464
-0.2549165 0.23886152 0.1145381 -0.10552101 0.08717228 -0.18568298 -0.16802533 -0.029540759
0.062437266 -0.12085319 -0.03265883 0.18463151 -0.26129422 -0.10632267 0.02253049 -0.17718433
-0.015681956 0.11001103 -0.03523042 -0.09448052 -0.012398833 0.22691022 0.17988384 0.25951898
-0.2656873 0.2603938 -0.24602345 0.0063387197 -0.02027463 0.2049635 -0.10321412 -0.08064314
0.05624138 0.2073925 -0.271237 0.2403398 0.057070006 -0.047013186 0.017111545 0.062425178
-0.11627218 0.21347265 -0.2160006 0.29737443 0.1314542 0.12399316 -0.15925355 0.05129415
0.050079606 0.20141108 -0.016252361 0.14477739 -0.28293157 -0.13557617 -0.078925654 0.12253467
0.23020671 -0.1669825 0.2932057 -0.18391846 0.29756728 0.26362264 -0.2766841 0.097624905
0.11548129 -0.2535861 -0.18342264 -0.13747591 -0.16878091 0.035257712 0.15121374 0.2741643
0.24174067 0.21546435 0.21821763 -0.24140759 0.24402921 -0.26000923 0.09897773 -0.059012778
0.044994593 0.13260464 -0.17077704 0.033993192 0.23861825 -0.14703801 -0.272692 0.090703696
0.09989629 0.29817572 0.07494156 -0.18463327 0.18394643 0.27319756 -0.08556748 0.2205131
-0.21901903 -0.20239204 0.06697379 -0.22347912 0.23720843 0.106969684 -0.21841156 -0.1056603
-0.30187136 -0.19939792 -0.048203778 0.1718802 0.081122875 0.12836476 0.14527193 -0.14033408
0.12423118 0.09942874 -0.24739464 0.032210518 0.17032595 -0.28110963 0.16460377 -0.050301086
0.29464835 -0.053011976 0.18455991 -0.10181819 -0.08168881 0.2887133 -0.1933416 0.12056632
0.20518373 -0.26574084 -0.23129085 -0.2960084 0.24509187 0.20287623 0.15289748 -0.116992734
0.1150538 -0.24669802 0.15667634 -0.053826082 -0.0814328 0.092074916 -0.0763484 0.21362187
-0.14480528 0.21594787 -0.106610425 -0.22703834 0.05120724 -0.17514586 -0.28577396 -0.01584473
0.29966742 0.055749446 0.25416186 -0.21724424 -0.12570263 0.28566387 -0.29301754 0.2745388
0.2361254 -0.07399188 -0.22021097 0.2954091 0.23540595 0.121741876 0.19792591 0.09455103
00000000: a9f0 8b3e 09d4 c7bd 55dd 4fbe 9a44 9a3e
00000010: 5d92 c83d 48f7 e63b 7b71 7cbe 39ad b7bd
00000020: 91a2 73bd ac62 163e 2477 99be f69f f3bd
00000030: e998 a5bd 0bac 6e3e 5fe4 063e cf05 53be
00000040: 44aa 37be eb25 87bd 08f3 53be aab1 f73b
00000050: 4bdd 1fbc f4df 80be 3699 af3d 3314 503d
00000060: e5b7 54be 4e86 8e3e 2ccb 3b3d 042f a33d
00000070: 6ecf 4cbe ad5a 21be 2c8d f73d 74ef 383e
00000080: 839e dabb 0545 283e a8f3 51be cb89 ef3d
00000090: 40d6 acbd 877d 743e 3b21 953e e7d8 923e
000000a0: 8455 00be 44bc 813e 9626 02be 5ca8 96be
000000b0: 304b 393e 5152 87bd d33f 03be f3b5 6a3e
000000c0: 08b8 2d3d 9828 5dbe c358 923d 7837 143e
000000d0: abc3 90be 76ca d4bd 7965 653e 0017 01bd
000000e0: 8aba f63d 9981 98be 2e3e 91be 9fad 523e
000000f0: bc36 7d3d 1d2f 3cbe ecc1 9e3b cfe6 923e
00000100: 492c 523d 8450 c13b f8b2 2dbe 420f eb3c
00000110: 0f30 81be 282e f13d 799c 863d d6a0 873e
00000120: 4e39 093e f612 8e3e 2c35 88be 82a7 fcbd
00000130: b9d1 70bd ba93 543e 31e5 843e d3b2 313d
00000140: c3f5 c63c ae28 e03d f7ba ef3d 09ab 7d3e
00000150: 50aa 763d 596c 82bb 834a 65bc ba52 09be
00000160: 6a84 82be 1d98 743e f492 ea3d 661b d8bd
00000170: 6187 b23d ae23 3ebe d50e 2cbe 76ff f1bc
00000180: 38be 7f3d e181 f7bd 44c5 05bd 0b10 3d3e
00000190: 5bc8 85be b3bf d9bd dd91 b83c cf6f 35be
000001a0: 7277 80bc 774d e13d c64d 10bd 017f c1bd
000001b0: 7a24 4bbc 275b 683e 7833 383e acdf 843e
000001c0: 2a08 88be 5652 853e 92ed 7bbe 09b5 cf3b
000001d0: fb16 a6bc f4e1 513e ed61 d3bd 3b28 a5bd
000001e0: 5c5d 663d b35e 543e 93df 8abe a31b 763e
000001f0: 3dc2 693d e690 40bd 832d 8c3c 8bb1 7f3d
00000200: 1c20 eebd 9398 5a3e 432f 5dbe 7641 983e
00000210: ee9b 063e 20f0 fd3d 5d13 23be d119 523d
00000220: 4620 4d3d b53e 4e3e ac23 85bc 8640 143e
00000230: 68dc 90be 7bd4 0abe c6a3 a1bd 75f3 fa3d
00000240: 4fbb 6b3e 76fd 2abe 0f1f 963e 1f55 3cbe
00000250: bd5a 983e 8cf9 863e 8aa9 8dbe 91ef c73d
00000260: 7481 ec3d 0ad6 81be 25d3 3bbe 7cc6 0cbe
00000270: e7d4 2cbe 646a 103d c6d7 1a3e 435f 8c3e
00000280: de8a 773e b0a2 5c3e 7174 5f3e 8d33 77be
00000290: cbe2 793e ee1f 85be d6b4 ca3d 62b7 71bd
000002a0: 404c 383d 83c9 073e 2de0 2ebe 723c 0b3d
000002b0: 5858 743e 2291 16be 499e 8bbe dcc2 b93d
000002c0: 6d96 cc3d 7daa 983e f67a 993d 8110 3dbe
000002d0: 745c 3c3e 8de0 8b3e 013e afbd 30ce 613e
000002e0: 8646 60be dc3f 4fbe 8e29 893d b6d7 64be
000002f0: c4e6 723e ec12 db3d 48a7 5fbe 6d64 d8bd
00000300: e28e 9abe f82e 4cbe 5371 45bd 5d01 303e
00000310: c023 a63d 0d72 033e 2ac2 143e bdb3 0fbe
00000320: eb6c fe3d 4ca1 cb3d 0555 7dbe 2def 033d
00000330: ed69 2e3e 9aed 8fbe e48d 283e 8308 4ebd
00000340: 26dc 963e 1623 59bd 46fd 3c3e 0e86 d0bd
00000350: 764c a7bd 3bd2 933e 57fb 45be 7aeb f63d
00000360: af1b 523e 2f0f 88be 82d7 6cbe 6a8e 97be
00000370: 5df9 7a3e c9be 4f3e 2891 1c3e e399 efbd
00000380: 54a1 eb3d 689e 7cbe c36f 203e bd78 5cbd
00000390: 3dc6 a6bd c691 bc3d 8d5c 9cbd b1bf 5a3e
000003a0: d647 14be 7021 5d3e 9156 dabd bd7c 68be
000003b0: afbe 513d 7059 33be f750 92be cfcc 81bc
000003c0: 026e 993e 8859 643d 8121 823e 4675 5ebe
000003d0: 31b8 00be 8942 923e 6506 96be 5990 8c3e
000003e0: dbca 713e 0e89 97bd fc7e 61be dd3f 973e
000003f0: 420e 713e ce53 f93d 17ad 4a3e f8a3 c13d

linear1.bias f4 [256]
-0.25312054 -0.10859664 -0.0729135 -0.045975454 0.22791031 -0.062819295 0.08940112 -0.009975078
0.08210702 0.19685334 -0.068950064 0.24396616 -0.2990822 0.20117092 -0.021096166 0.29542074
0.20250314 0.2733697 0.2851473 0.29028422 -0.16347064 0.041315626 0.24316621 -0.2332253
0.10444375 0.25556847 0.06618284 0.09971282 0.08898784 -0.26812682 -0.20602119 0.14984046
0.031222697 -0.12205979 0.1424108 0.16939175 -0.22542301 0.18925326 -0.2955267 -0.0775453
0.29867613 0.20251058 0.25348726 0.15281662 0.2708403 -0.27487388 0.24283782 0.11976911
-0.04127218 0.04391905 -0.18334463 0.25680515 -0.2092736 -0.29251003 0.07087336 0.08939466
0.036205426 -0.092804864 0.10049436 0.23687805 0.058199752 0.04577569 -0.09441421 0.06491808
-0.24558277 -0.1397801 0.20647867 0.21604949 -0.016267799 0.18306716 0.15763447 -0.03565494
0.19377857 -0.046313584 0.18092908 -0.13941886 -0.1362579 -0.1776043 0.1048719 -0.28584352
-0.0006900884 -0.17914452 -0.070805326 -0.1399734 -0.10154839 0.26469317 -0.0319954 0.09084018
-0.2487289 0.096374445 0.024487438 -0.15060219 -0.15030973 0.07916412 0.19801329 0.25313142
0.20334367 -0.1479363 -0.04526974 -0.26330462 -0.28456974 0.18408449 0.16610183 0.033967104
-0.058033243 0.22809888 -0.22643837 -0.047644887 0.2470853 0.16579045 -0.29361847 -0.23584901
-0.037086457 -0.10234818 -0.004182016 0.22045283 -0.20411782 -0.06343758 -0.12510218 -0.15803356
0.19812301 -0.057933375 0.22146152 -0.07127566 -0.061146613 -0.024960915 0.012033563 -0.20410365
-0.14087261 0.09482023 0.04421008 0.115461774 -0.14387217 -0.19925551 -0.2681289 0.071428485
-0.25401378 -0.23074602 0.18989943 0.14463113 -0.12801142 0.048711304 -0.22566326 -0.14686063
-0.14493491 -0.01305883 -0.0053768605 -0.06427157 0.16638166 -0.0866507 -0.21436387 0.033830192
0.05134526 -0.27873704 -0.075285025 0.122758605 0.086089425 -0.20519292 -0.16770713 0.013260072
-0.14602451 0.22953984 0.029083328 0.28392678 -0.2558018 0.30845413 -0.05793381 0.0056178616
-0.26100677 -0.10811062 -0.044106852 0.25995898 0.090474926 -0.09038326 0.020287218 -0.23348561
0.076031 -0.06590892 0.10709815 -0.2844207 -0.064734325 0.2527024 -0.19290635 -0.22096051
-0.13555712 -0.26290902 -0.0036598672 0.21076946 0.09619342 0.21162696 0.21159363 -0.24474683
-0.2047377 -0.23770337 -0.21613634 -0.22757635 -0.04423451 0.093314864 -0.046330478 -0.18982832
0.2007573 -0.19726636 -0.09604487 0.2653732 0.20662563 -0.13977042 -0.18612495 -0.20591687
-0.109957196 -0.27650043 -0.04066827 0.27843538 0.12405584 -0.2316718 0.21228279 -0.2292049
0.043260474 -0.19387543 0.21778232 -0.29632115 0.18009229 0.16766691 -0.13610435 -0.019379552
-0.2729288 -0.26479056 0.272372 -0.13146444 0.046812333 0.05450797 -0.26474202 -0.11111167
-0.103194445 -0.10818149 0.25546563 -0.09746135 0.034338225 -0.028635329 -0.15681523 0.052384593
-0.17920572 -0.18512769 -0.22844285 0.2335463 0.17259978 -0.134639 -0.28368625 0.052298557
-0.1971425 0.25582415 -0.15304594 -0.029478872 0.07641174 0.08317455 0.26902622 -0.27778324
00000000: 0499 81be ea67 debd ac53 95bd c250 3cbd
00000010: 5261 693e 67a7 80bd ef17 b73d 826e 23bc
00000020: ba27 a83d ec93 493e b135 8dbd 44d2 793e
00000030: 4d21 99be c0ff 4d3e ded1 acbc 6341 973e
00000040: fc5c 4f3e 1df7 8b3e d4fe 913e 22a0 943e
00000050: d964 27be 933a 293d 9000 793e 9dd2 6ebe
00000060: 9be6 d53d dfd9 823e de8a 873d 3c36 cc3d
00000070: 423f b63d eb47 89be 38f7 52be c76f 193e
00000080: bec6 ff3c 7cfa f9bd 23d4 113e 0875 2d3e
00000090: 4ad5 66be 9bcb 413e 474f 97be 12d0 9ebd
000000a0: 14ec 983e ef5e 4f3e 15c9 813e f67b 1c3e
000000b0: 94ab 8a3e 45bc 8cbe 7aaa 783e 8249 f53d
000000c0: 040d 29bd 76e4 333d b2be 3bbe f77b 833e
000000d0: d24b 56be e0c3 95be 0d26 913d 8c14 b73d
000000e0: 244c 143d 7a10 bebd fdcf cd3d 2990 723e
000000f0: dd62 6e3d 4a7f 3b3d 3d5c c1bd c5f3 843d
00000100: 0d7a 7bbe 8422 0fbe 256f 533e 143c 5d3e
00000110: 0c44 85bc f575 3b3e ee6a 213e ea0a 12bd
00000120: e46d 463e 50b3 3dbd 7945 393e d1c3 0ebe
00000130: 3187 0bbe e7dd 35be 14c7 d63d 155a 92be
00000140: 0ce7 34ba a971 37be 6202 91bd 3055 0fbe
00000150: 9af8 cfbd dd85 873e 9c0d 03bd 6b0a ba3d
00000160: cab2 7ebe f75f c53d e199 c83c 7637 1abe
00000170: cbea 19be cc20 a23d ffc3 4a3e 719a 813e
00000180: 5339 503e 9d7c 17be c36c 39bd ddcf 86be
00000190: 20b3 91be a580 3c3e 9916 2a3e 1721 0b3d
000001a0: 44b4 6dbd c192 693e 76df 67be 4927 43bd
000001b0: ee03 7d3e f9c4 293e 2955 96be 6782 71be
000001c0: f8e7 17bd ec9b d1bd 4b09 89bb 63be 613e
000001d0: 4304 51be 90eb 81bd c91a 00be 8dd3 21be
000001e0: c2e0 4a3e 8c4b 6dbd cfc6 623e f9f8 91bd
000001f0: df74 7abd d57a ccbc 6c28 453c 8c00 51be
00000200: e940 10be 1c31 c23d a115 353d 3977 ec3d
00000210: 3a53 13be a309 4cbe 3148 89be 1949 923d
00000220: 180e 82be af48 6cbe ff74 423e 2f1a 143e
00000230: 6d15 03be 8185 473d 4514 67be a262 16be
00000240: d169 14be b4f4 55bc 6030 b0bb d0a0 83bd
00000250: f45f 2a3e ec75 b1bd 3482 5bbe 8791 0a3d
00000260: 684f 523d 9fb6 8ebe 092f 9abd dd68 fb3d
00000270: a74f b03d 181e 52be 6bbb 2bbe c640 593c
00000280: 7387 15be 7e0c 6b3e 2940 ee3c da5e 913e
00000290: 74f8 82be b3ed 9d3e 014c 6dbd 0a16 b83b
000002a0: aea2 85be 1a69 ddbd 63a9 34bd 5819 853e
000002b0: eb4a b93d dc1a b9bd 6131 a63c da16 6fbe
000002c0: 24b6 9b3d 41fb 86bd 4656 db3d 979f 91be
000002d0: 6e93 84bd 3562 813e 3e89 45be 7943 62be
000002e0: 7ccf 0abe 039c 86be 62da 6fbb f3d3 573e
000002f0: 0e01 c53d bdb4 583e 00ac 583e ea9e 7abe
00000300: c2a6 51be 8368 73be d852 5dbe c609 69be
00000310: 3f2f 35bd dd1b bf3d 07c5 3dbd 5b62 42be
00000320: 5293 4d3e 3100 4abe 2cb3 c4bd ffde 873e
00000330: ab95 533e fa1f 0fbe 8a97 3ebe dfdb 52be
00000340: 3d31 e1bd 7791 8dbe c693 26bd 158f 8e3e
00000350: fd10 fe3d 5f3b 6dbe a960 593e b0b4 6abe
00000360: e531 313d 4887 46be 5402 5f3e 68b7 97be
00000370: 1d6a 383e e0b0 2b3e f05e 0bbe dec1 9ebc
00000380: 53bd 8bbe a192 87be 5874 8b3e 9d9e 06be
00000390: 4abe 3f3d c043 5f3d 448c 87be 848e e3bd
000003a0: 9c57 d3bd 428e ddbd 64cc 823e d199 c7bd
000003b0: 3da6 0c3d a394 eabc 2c94 20be 3a91 563d
000003c0: b481 37be 1d92 3dbe ecec 69be c326 6f3e
000003d0: ffbd 303e cede 09be 533f 91be 0337 563d
000003e0: b9df 49be 62fb 823e 13b8 1cbe ad7d f1bc
000003f0: c27d 9c3d 6b57 aa3d cebd 893e 9b39 8ebe

linear2.weight f4 [3, 256]
-0.05092159 0.025714967 0.025338631 0.05486628 -0.028081926 0.037653126 0.019751616 -0.0075801653
-0.036272813 -0.02851225 -0.056707196 0.046063438 0.023236275 0.02969402 0.0049408255 -0.0024161134
-0.033406883 0.033917475 -0.022932978 0.012679681 0.03768801 0.05577566 0.04527198 -0.012885772
0.010533345 -0.03182398 -0.017919675 -0.034173362 -0.014192419 0.05958218 0.0041892664 -0.006050484
-0.030976089 0.04701438 -0.038721144 0.060790256 -0.046471857 -0.054290418 0.060113866 -0.043430977
0.007182764 0.0034269616 0.05160527 -0.015830457 -0.026406353 -0.02909178 -0.065092474 0.026880354
0.019303469 0.057036933 -0.05304484 -0.02630711 -0.0263408 -0.055999555 0.012594626 0.055884216
-0.021734033 -0.04131553 -0.046226762 -0.0083812345 -0.017647516 -0.03444542 -0.053882882 -0.02039553
0.016075082 0.056814376 0.036446054 0.04936154 0.01227138 -0.04877488 -0.00086858065 -0.021167265
-0.04968936 -0.05458852 0.016986722 -0.042289138 0.052780375 -0.0017977878 -0.05939073 0.017354846
-0.0040143384 -0.014047049 -0.045394946 -0.038263924 -0.012066022 -0.040636983 -0.013893435 -0.044495407
0.04256344 0.012406887 0.053848233 0.055077553 0.0004085682 -0.03194971 0.04890633 0.04471401
-0.03454224 0.024559274 0.052276056 -0.049026906 0.0358828 0.00782285 -0.048659503 0.00032783044
0.02381853 -0.053883333 -0.03336288 0.016041243 0.027683757 -0.011928636 0.048562914 -0.0018723874
0.028933173 0.05291547 -0.027081832 0.022772707 0.056601487 -0.014750475 -0.044747178 0.040403154
-0.06125097 -0.031814683 -0.0072513265 -0.06163301 0.023280395 0.037280772 -0.046491005 -0.0152575765
-0.0017314338 0.01686609 0.031718977 -0.013170177 0.032311983 -0.06004316 -0.033293635 0.010475369
0.022227062 0.0076250667 -0.060170334 -0.04599821 0.057793934 -0.014803952 0.050391216 -0.020466527
0.041858096 0.033302054 0.012381598 0.018937847 -0.039411444 0.014387153 0.014979931 0.010046966
-0.0073817912 0.0071890503 0.04215348 -0.029998172 -0.024098597 -0.0630418 -0.021622092 -0.037877925
0.015310819 0.04240369 -0.04051179 0.05157966 -0.028316624 -0.056102913 0.030809047 0.05716558
0.059007592 0.016234154 -0.0613457 -0.062195167 0.054451652 -0.009004709 0.030353505 -0.0029039741
0.03630243 0.032641873 0.016695697 0.0451747 0.028062433 -0.040482294 -0.00032775104 0.05966451
0.011176369 -0.041293584 0.025673823 -0.034641907 -0.022434385 0.05596399 -0.037397638 0.008183872
-0.039196823 0.05180522 -0.04691714 0.044557206 0.05579663 0.016110696 -0.059579525 -0.060496844
-0.002434098 0.03355056 -0.016568309 -0.04779641 0.0072233775 -0.001055152 -0.021461815 -0.05304112
-0.034742143 0.05288885 -0.021863388 -0.054211337 -0.03354679 -0.023791442 -0.002052633 -0.06542725
0.03770026 -0.058934838 -0.006639104 0.026676401 0.007350071 -0.021821415 -0.039198603 -0.033874962
0.039257944 -0.0015209317 0.048289306 0.048252366 0.015590665 0.032926213 -0.047443315 -0.01061067
0.032141875 -0.0148329465 0.016163316 -0.044280816 -0.018153347 -0.0006611968 0.015428209 0.040123962
0.03362791 -0.010131387 0.02189578 -0.009056869 0.044671595 -0.009617604 -0.008262381 -0.008419097
-0.044059306 -0.0003747694 0.026634227 0.03317547 0.042848308 -0.021477617 -0.013020373 0.038633175
00000000: 2893 50bd 32a8 d23c f692 cf3c 77bb 603d
00000010: 110c e6bc 2a3a 1a3d 24ce a13c 0963 f8bb
00000020: cd92 14bd 8692 e9bc ce45 68bd 04ad 3c3d
00000030: 005a be3c e040 f33c a6e6 a13b a857 1ebb
00000040: a8d5 08bd 0ded 0a3d f1dd bbbc 70be 4f3c
00000050: be5e 1a3d 0575 643d 1d6f 393d d81e 53bc
00000060: 0d94 2c3c dd59 02bd 48cc 92bc 5ef9 0bbd
00000070: 5287 68bc 720c 743d 1d46 893b 2343 c6bb
00000080: 91c1 fdbc 2792 403d 109a 1ebd 34ff 783d
00000090: 4659 3ebd a15f 5ebd f539 763d aee4 31bd
000000a0: 645d eb3b e096 603b 0c60 533d e0ae 81bc
000000b0: 2352 d8bc e251 eebc 344f 85bd 3034 dc3c
000000c0: 4f22 9e3c 8f9f 693d 8c45 59bd 0282 d7bc
000000d0: a9c8 d7bc ca5f 65bd b159 4e3c d9e6 643d
000000e0: 920b b2bc 793a 29bd 4658 3dbd 7251 09bc
000000f0: 8691 90bc a416 0dbd 4cb4 5cbd 8714 a7bc
00000100: e4af 833c 31b6 683d 7548 153d 532f 4a3d
00000110: e60d 493c 2bc8 47bd 76b1 63ba f966 adbc
00000120: 1287 4bbd 3698 5fbd bd27 8b3c 6037 2dbd
00000130: 3c30 583d c0a3 ebba b243 73bd c02b 8e3c
00000140: b68a 83bb 9825 66bc 0df0 39bd a2ba 1cbd
00000150: 90b0 45bc f772 26bd 4aa1 63bc d140 36bd
00000160: 0057 2e3d 4146 4b3c f78f 5c3d 0099 613d
00000170: 1835 d639 b3dd 02bd 0152 483d 0a26 373d
00000180: 2a7c 0dbd 8830 c93c 6b1f 563d 70d0 48bd
00000190: d8f9 123d 692b 003c 304f 47bd a8e0 ab39
000001a0: 141f c33c c5b4 5cbd 84a7 08bd ed68 833c
000001b0: 0cc9 e23c 5370 43bc e8e9 463d e56a f5ba
000001c0: 4305 ed3c e4bd 583d b8da ddbc d48d ba3c
000001d0: f6d6 673d faab 71bc d148 37bd c77d 253d
000001e0: 4ce2 7abd 1d50 02bd 899c edbb e572 7cbd
000001f0: 87b6 be3c b9b3 183d 5a6d 3ebd eafa 79bc
00000200: 47f1 e2ba c12a 8a3c c2eb 013d bac7 57bc
00000210: 9259 043d d1ef 75bd e85e 08bd e2a0 2b3c
00000220: 8715 b63c b2db f93b 2b75 76bd 9e68 3cbd
00000230: 55b9 6c3d 468c 72bc 0567 4e3d 6ba9 a7bc
00000240: 6573 2b3d bc67 083d 30dc 4a3c 8b23 9b3c
00000250: e56d 21bd 18b8 6b3c 626e 753c 089c 243c
00000260: f4e2 f1bb 2092 eb3b 21a9 2c3d babe f5bc
00000270: 6c6a c5bc 0f1c 81bd d020 b1bc e225 1bbd
00000280: 3bda 7a3c 7eaf 2d3d b1ef 25bd 3245 533d
00000290: 44f8 e7bc 2bcc 65bd 4163 fc3c 7526 6a3d
000002a0: f2b1 713d 7dfd 843c a145 7bbd 5cc0 7ebd
000002b0: b208 5f3d 7d88 13bc eaa7 f83c 9a50 3ebb
000002c0: dbb1 143d 7cb3 053d 6ac5 883c 1b09 393d
000002d0: 30e3 e53c c3d0 25bd 00d6 abb9 c662 743d
000002e0: 171d 373c 7623 29bd e951 d23c ace4 0dbd
000002f0: 51c8 b7bc 7f3a 653d 442e 19bd a615 063c
00000300: d98c 20bd b631 543d 302c 40bd 9e81 363d
00000310: 028b 643d 94fa 833c a909 74bd 8acb 77bd
00000320: 6385 1fbb 506c 093d 43ba 87bc 2bc6 43bd
00000330: 15b2 ec3b 074d 8aba b0d0 afbc a541 59bd
00000340: c74d 0ebd fba1 583d d91a b3bc b50c 5ebd
00000350: 5c68 09bd 45e6 c2bc 7885 06bb b9fe 85bd
00000360: 966b 1a3d a865 71bd d78c d9bb 7888 da3c
00000370: ddd8 f03b d3c2 b2bc b78e 20bd 79c0 0abd
00000380: f0cc 203d 005a c7ba 02cb 453d 46a4 453d
00000390: fd6f 7f3c a3dd 063d ec53 42bd 60d8 2dbc
000003a0: 33a7 033d e305 73bc ee68 843c cd5f 35bd
000003b0: 54b6 94bc 2b54 2dba 99c6 7c3c 0659 243d
000003c0: 6bbd 093d 1efe 25bc c75e b33c 4363 14bc
000003d0: 90f9 363d 2893 1dbc f05e 07bc 41f0 09bc
000003e0: 8877 34bd b37c c4b9 0630 da3c 00e3 073d
000003f0: b581 2f3d d4f1 afbc 6753 55bc d23d 1e3d

linear2.bias f4 [3]
-0.013489565 -0.03914877 0.027649764
00000000: 5603 5dbc 765a 20bd c281 e23c
